logs/global_weights.npz (npz, 30986 bytes, 22 tensors)

arr_0 f4 [64, 50]
000000 f8 08 ce 3c 92 78 3c bd 3f bd 98 bd 58 18 02 bd
       0.025150761 -0.046013422 -0.07457971 -0.031761497
000010 80 81 aa 3a 09 98 0b 3e e6 64 72 bd 0d 0c 89 bd
       0.0013008565 0.13632216 -0.059178255 -0.06691752
000020 1f 38 80 bd b9 ea 8f bd ca 17 aa 3d c8 8d 23 3d
       -0.06260704 -0.07027192 0.08305319 0.039930135
000030 32 e7 ba bd 24 fc 63 3d c6 02 b7 3d f4 b2 4d bd
       -0.09126128 0.055660382 0.08936076 -0.05021949
000040 9e 5d 23 bd 0b 42 10 be 73 35 81 bd 5e 55 88 3d
       -0.039884202 -0.14087693 -0.06309023 0.066569075
000050 90 bc d7 3d b0 c0 11 3c a4 8e 35 3d 9c 49 dd 3d
       0.10534012 0.008896038 0.044325486 0.108050555
000060 5a 83 ae bd 78 3f 05 be f0 e2 58 bc bc 73 48 bd
       -0.08521147 -0.13012493 -0.0132377 -0.048938498
000070 a0 c2 59 bd 80 0f cd bc 7c ed 5f bd 30 a2 06 bd
       -0.053164124 -0.025031805 -0.054669842 -0.032869518
000080 e2 27 8c 3d e0 a1 28 3d 92 20 8c bd 40 86 cf bd
       0.068435445 0.04117 -0.0684215 -0.10133028
000090 1c 80 da 3d 26 09 89 3d d6 ef d8 bd ba d3 98 bd
       0.10668966 0.06691198 -0.1059262 -0.07462259
0000a0 0a 1d c3 3d 94 c8 e7 bc 9c 3e 8b 3d 0c f6 47 3d
       0.09527023 -0.028293885 0.06799051 0.048818633
0000b0 c1 7a ef bd 4d 10 0d 3e e0 30 86 3c 28 eb a3 3d
       -0.11693335 0.1377575 0.016380727 0.08003837
0000c0 68 02 42 3d c4 0a 39 3d 4f 08 ad 3c a1 c8 01 3e
       0.047365576 0.045176283 0.021122126 0.1267419
0000d0 64 c0 0b 3d 3e 55 da 3d 7a e1 c7 3d c0 39 0e bb
       0.034119025 0.1066079 0.09759803 -0.0021701902
0000e0 08 3f 07 3d 1e 4c 92 bd 8e 69 58 bd 10 13 76 3c
       0.033019096 -0.071434245 -0.05283504 0.015019193
0000f0 30 d4 6e bd c0 f1 19 3c b4 93 27 3d 2a 8d fc 3d
       -0.058307827 0.009396017 0.040912345 0.123316124
000100 a0 05 77 3d c0 61 d2 bb 54 c6 ca 3d 40 e7 c0 3b
       0.0603081 -0.006420344 0.09901109 0.005886942
000110 40 25 c0 bd 40 9a bf bd dc 55 68 3d f0 b2 8f 3c
       -0.09382105 -0.09355593 0.056722507 0.017541379
000120 5b 6b 8d bd 34 28 df bd 65 6e 8f bd 46 84 db 3d
       -0.06905242 -0.1089634 -0.07003478 0.107185885
000130 62 97 a4 bd 1e 6d e5 3d f6 49 f2 bd 14 fe d1 bd
       -0.080366865 0.11202453 -0.11830513 -0.1025354
000140 38 f7 4a bd f0 46 06 3d 9c 01 0f bc c5 bf 64 38
       -0.049552172 0.032782495 -0.008728411 5.4538035e-05
000150 a3 8a 02 be f6 8d 0e be ec f1 7c bd 54 93 d3 bd
       -0.12748198 -0.13921341 -0.061754152 -0.10330835
000160 84 16 08 bd 58 04 f9 3c 52 bf e2 3d 40 43 44 3d
       -0.033224598 0.03039758 0.11071648 0.047915697
000170 0c c7 06 be 9e 79 94 bd 20 8a bc 3b f0 6d ad 3d
       -0.13161868 -0.07249759 0.0057537705 0.084682345
000180 b9 f8 e5 bd a0 b2 f9 3c 34 08 04 bd 55 84 f2 bd
       -0.11229081 0.030480683 -0.032234386 -0.118416466
000190 94 41 70 3d 32 10 f8 3d 7c 33 18 3d e0 42 d7 3c
       0.05865629 0.12112464 0.037158474 0.026277006
0001a0 cb 25 09 3e 40 39 09 3d 42 1b 3b bd 82 a5 0d be
       0.13393323 0.033501863 -0.045680292 -0.13832667
0001b0 c2 63 b7 bd e8 44 cc 3c 32 36 d3 bd 74 f7 d6 3d
       -0.08954574 0.0249352 -0.10313071 0.10496417
0001c0 40 55 67 3c 4c bb df bc 13 95 04 3e 18 3f 3b 3d
       0.014119446 -0.02731099 0.12947492 0.045714468
0001d0 f8 bd fc bc 70 47 d5 3d 94 b1 19 bd 01 43 0f 3e
       -0.030852303 0.10414016 -0.037522867 0.13990404
0001e0 04 10 79 3d f4 0d b2 3d ff 39 01 be 06 5d fe 3d
       0.06080629 0.086940676 -0.1261978 0.124200866
0001f0 ee 0a 50 bd 32 d9 0a be 7a 36 7a bd d9 cc 08 be
       -0.050791673 -0.13559416 -0.06108711 -0.13359393
000200 e0 ef 03 3c 76 73 4e bd c0 d8 08 3c 76 79 fc 3d
       0.008052796 -0.05040308 0.0083524585 0.12327854
000210 72 a3 da bd a8 ea 73 bd cc 21 7d 3d cc 9d a2 3d
       -0.10675706 -0.059549958 0.06179981 0.079402536
000220 f5 d2 0b be 2d 2a 10 be 08 6f 70 3d 14 7a 41 bd
       -0.13654692 -0.14078589 0.058699638 -0.047235563
000230 5c 3d f9 bc 90 17 d3 3d 3c f4 2c 3d 18 52 f6 3c
       -0.030424766 0.103072286 0.042225108 0.030068442
000240 28 a2 cd 3c 80 79 1d bb d0 09 9b 3c b8 9a c8 bd
       0.025101736 -0.0024028718 0.018925577 -0.09795135
000250 97 9a 97 bd c8 f0 d5 bd a0 83 64 3a dc 63 0a be
       -0.074025325 -0.10446316 0.00087171234 -0.13514656
000260 da a5 b5 bd b7 47 26 b9 95 94 8d bc 1c b2 db bd
       -0.08869524 -0.0001585771 -0.017282763 -0.10727331
000270 41 9c 1f 3d 54 01 f8 bd 6e 59 1c 3d 28 5b 8d 3d
       0.038967375 -0.12109628 0.038171224 0.06902152
000280 4e d3 ec 3d 7a 81 e7 3d 04 33 d9 bd 3e ff 25 bd
       0.11563741 0.113039926 -0.106054336 -0.04052662
000290 aa 77 d8 3d 4e a4 3f bd c8 6b d3 bd 00 1f 2e bd
       0.10569699 -0.046787553 -0.10323292 -0.042510033
0002a0 a8 c8 02 be 71 55 d4 bd 84 ae f6 3d 3c fc e0 3d
       -0.12771857 -0.10367859 0.12045005 0.1098561
0002b0 ba 01 f4 3d 8e 75 f3 bd fa a5 e7 3c fa c0 30 3d
       0.11914392 -0.11887656 0.028277386 0.043152787
0002c0 92 01 ed 3d 0b 61 0b 3e 7e 30 83 3d a8 8c 94 3d
       0.11572565 0.13611238 0.064057335 0.072533906
0002d0 5b 3d 8d 3b 5c 2e 5d bc 48 aa 02 3d 29 69 74 3d
       0.0043102927 -0.0134998225 0.031900674 0.0596706
0002e0 8b a9 59 3d e0 aa a2 3c be 1d 81 bd 1a 36 2f b9
       0.053140204 0.01985687 -0.06304501 -0.00016709455
0002f0 78 8e 7f bd ca 93 e7 bd 39 8e d6 bc ce 54 06 be
       -0.06239173 -0.113074854 -0.026190864 -0.13118288
000300 b8 5a e7 bc 0c 91 89 3d a4 b9 61 3d d6 6f 97 3d
       -0.0282415 0.067171186 0.05510868 0.07394378
000310 14 14 34 3d 98 27 ee bd 0d 3b cd bd 2c 34 97 bb
       0.04396446 -0.11628646 -0.10021029 -0.0046143737
000320 7a 66 4c bd 08 e1 7c 3d f0 d9 c6 bd bc 37 1a 3d
       -0.049902417 0.061738044 -0.09709537 0.03765081
000330 e4 06 53 bd bc 33 2b 3d 12 8e 88 bd ac cd aa bd
       -0.051520243 0.041797385 -0.06667723 -0.0834001
000340 b8 f2 bc bd 28 d1 a7 3c 12 30 b4 bd eb 8c e4 bd
       -0.092259824 0.020485476 -0.08798231 -0.111596905
000350 42 0d a5 bd 2a fd c0 bd 00 49 03 bb f0 21 25 bc
       -0.08059169 -0.09423287 -0.0020032525 -0.010078892
000360 77 bd 9e bd 6a 75 dc bd 82 2b ff ba 92 3c ef 3d
       -0.07750981 -0.107645825 -0.0019467922 0.11681475
000370 7e 25 f2 bd 2e a3 0a be 52 06 00 be 80 8f a2 3d
       -0.11823557 -0.1353881 -0.12502411 0.07937527
000380 bc d8 1b bd 22 ba fe 3d ca 1a 88 3d 12 f1 03 be
       -0.03804849 0.12437846 0.066457346 -0.1288493
000390 80 5c 2d bd c8 99 8f bc 04 e3 88 bc 93 08 10 3e
       -0.042324543 -0.017529383 -0.016709812 0.14065771
0003a0 4e 53 7e bd 0c 74 7a bd fa 1c be bd a5 1d e4 bd
       -0.062091164 -0.061145827 -0.092828706 -0.11138467
0003b0 96 dc f0 3d 78 9a d6 3d f8 68 a5 3d ac 6b a4 3d
       0.117608234 0.10478681 0.08076662 0.08028349
0003c0 dc 84 4e 3d 30 f2 0f 3c 0c 24 ad bd aa 92 e2 bd
       0.050419673 0.008785769 -0.08454141 -0.1106313
0003d0 60 c3 db 3d 00 0d 64 bb 2c 90 7a 3d 98 09 6e 3d
       0.10730624 -0.0034797788 0.06117265 0.058114618
0003e0 94 39 ca bd 9c b0 04 3d 74 7d b5 bd cc a0 71 3d
       -0.098742634 0.03239499 -0.08861819 0.05899124
0003f0 48 f1 06 bd 70 7d 9c bd 22 54 fc bd ec cc b7 bd
       -0.032944947 -0.07641113 -0.123207346 -0.089746326

arr_1 f4 [64]
000000 42 8a 07 bd 78 d2 9b bc d9 ed 0a be 8c ee 85 bd
       -0.033090837 -0.019021258 -0.13567294 -0.0653964
000010 22 78 f6 bd 60 ca b2 3d b6 69 a7 bd 90 69 96 bd
       -0.12034632 0.08730006 -0.0817446 -0.07344353
000020 18 e4 ba 3d 66 ae f0 bd 41 03 0d 3e ef 7f 8c bd
       0.09125537 -0.11752014 0.13770773 -0.06860339
000030 a6 0a 99 bd 62 cc 59 bd 52 11 a7 3d a1 6a f0 bd
       -0.07472734 -0.05317343 0.081576005 -0.11739088
000040 64 50 f2 bc f7 b2 d3 bd b8 db 99 3c e6 8b b0 bd
       -0.029579349 -0.10336869 0.018781528 -0.086204335
000050 3a 77 ea 3d e0 4a b3 3b 07 bb d1 bd e0 4b e0 bb
       0.11448522 0.0054715723 -0.10240751 -0.0068449825
000060 24 be b9 bd 50 8d 45 bc 5d b1 9f bd 06 37 b6 bd
       -0.090694696 -0.012057617 -0.07797501 -0.08897214
000070 70 45 82 3d 62 8b 0b be 22 86 a1 3d 24 37 0a 3d
       0.063609004 -0.13627389 0.07886912 0.033743992
000080 16 f1 ee bd 68 0b e0 bc f2 06 f7 3d 8e aa b4 bd
       -0.11667077 -0.027349189 0.120618716 -0.08821593
000090 b8 a0 08 3d 73 9e 0b be 18 c0 a3 3d f9 8f 03 3e
       0.0333564 -0.13634662 0.07995623 0.1284789
0000a0 00 00 68 39 42 d1 a2 bd 46 30 f6 bd aa 12 fb bd
       0.00022125244 -0.07950069 -0.12020926 -0.12259419
0000b0 98 e5 dd bd d0 20 0b bc b6 b0 da bd b0 79 b2 bd
       -0.10834807 -0.00849171 -0.10678236 -0.08714616
0000c0 7c 61 a3 3d c0 2d 73 bc e4 64 75 bd 9c 31 12 3d
       0.07977578 -0.014842451 -0.05991067 0.035691842
0000d0 80 7b 47 bb 2a cb fa 3d 46 0b dd 3d c0 79 d2 3d
       -0.0030438602 0.12245782 0.10793166 0.10277128
0000e0 b8 6f cc 3d 2c 33 d7 bd 8c 94 bf bd af c1 0e 3e
       0.09982246 -0.10507807 -0.09354505 0.13941072
0000f0 f0 89 46 bc 83 f9 ef bd b8 a8 36 3d 7e 09 fb 3d
       -0.012117848 -0.117175125 0.044594496 0.1225767

arr_2 f4 [64]
000000 48 d3 7f 3f ee f7 7f 3f dc 01 80 3f d6 e6 7f 3f
       0.99931765 0.99987686 1.0000567 0.999616
000010 6c f4 7f 3f 7f 04 80 3f 64 06 80 3f ce 0b 80 3f
       0.99982333 1.0001372 1.000195 1.0003603
000020 14 01 80 3f 1e 01 80 3f 76 fb 7f 3f d3 0a 80 3f
       1.0000329 1.0000341 0.99993074 1.0003303
000030 44 10 80 3f 9c 0d 80 3f 86 02 80 3f a1 fa 7f 3f
       1.0004964 1.0004153 1.000077 0.99991804
000040 a6 0c 80 3f 14 ea 7f 3f 30 f8 7f 3f dc 0a 80 3f
       1.000386 0.9996655 0.9998808 1.0003314
000050 b0 10 80 3f 3e 0b 80 3f 84 02 80 3f a2 d1 7f 3f
       1.0005093 1.0003431 1.0000768 0.9992925
000060 37 0a 80 3f ca 04 80 3f e0 fc 7f 3f 05 04 80 3f
       1.0003117 1.0001462 0.9999523 1.0001227
000070 7e 09 80 3f 9c ce 7f 3f 9a fb 7f 3f e4 f9 7f 3f
       1.0002897 0.99924636 0.9999329 0.9999068
000080 64 fd 7f 3f 4a f2 7f 3f 7a f3 7f 3f 38 0e 80 3f
       0.9999602 0.9997908 0.9998089 1.0004339
000090 e0 07 80 3f b3 fb 7f 3f cf 03 80 3f 16 07 80 3f
       1.0002403 0.9999344 1.0001162 1.0002162
0000a0 38 fa 7f 3f b4 f8 7f 3f f6 c3 7f 3f 48 fe 7f 3f
       0.9999118 0.99988866 0.9990839 0.9999738
0000b0 66 05 80 3f d8 fb 7f 3f 15 fc 7f 3f 8a eb 7f 3f
       1.0001647 0.9999366 0.9999402 0.9996878
0000c0 5a 02 80 3f 76 08 80 3f 62 df 7f 3f 79 00 80 3f
       1.0000718 1.0002582 0.9995023 1.0000144
0000d0 7e 02 80 3f 56 0c 80 3f a4 fc 7f 3f 50 db 7f 3f
       1.000076 1.0003765 0.99994874 0.9994402
0000e0 4c 0a 80 3f f3 04 80 3f e8 0b 80 3f 24 0f 80 3f
       1.0003142 1.000151 1.0003633 1.000462
0000f0 cc f6 7f 3f ac cd 7f 3f 74 03 80 3f c1 ed 7f 3f
       0.9998596 0.99923205 1.0001054 0.9997216

arr_3 f4 [64]
000000 3e 9e cb b9 53 a3 af b7 9c fb cb b7 3e 15 20 b7
       -0.00038837077 -2.093768e-05 -2.431665e-05 -9.541689e-06
000010 68 24 80 b9 60 00 72 39 5c 80 d0 38 6e 9e 28 3a
       -0.00024441187 0.00023079058 9.942122e-05 0.0006432299
000020 08 eb d0 38 0e 3e ab 38 23 a0 cf b8 68 66 fd 39
       9.961991e-05 8.165474e-05 -9.900357e-05 0.0004833222
000030 6e bc e4 39 02 e1 42 3a 7d df b3 37 d4 f5 ab 37
       0.0004362794 0.00074340415 2.1442533e-05 2.0499261e-05
000040 2c 43 01 3a f2 8c 81 b8 40 f4 26 33 2c 8c a8 38
       0.0004930969 -6.1774525e-05 3.887203e-08 8.036973e-05
000050 8a de 62 3a 56 6a 55 39 64 5a 90 38 80 04 ab b9
       0.0008654377 0.00020352876 6.883292e-05 -0.00032619014
000060 56 5f db 39 48 a7 09 39 32 0e 0c b8 7f 28 83 39
       0.00041841966 0.00013127655 -3.339182e-05 0.0002501644
000070 bd 89 fc 39 63 70 07 ba 36 86 a3 38 a4 7c b3 38
       0.0004816781 -0.0005166588 7.7974444e-05 8.558601e-05
000080 4f c9 09 b9 ed 5e b1 b8 35 9f ff b8 ee 5a 20 3a
       -0.00013140331 -8.457699e-05 -0.00012189002 0.0006117065
000090 5e 47 ae 39 37 98 c5 b8 d4 91 5a 38 64 32 bb 39
       0.0003324104 -9.422044e-05 5.2111063e-05 0.00035704963
0000a0 1c 3b bd b8 2d cd 00 b9 5c 17 f2 b9 7f 8b 83 b8
       -9.023232e-05 -0.00012283465 -0.0004617524 -6.27255e-05
0000b0 dc 85 01 39 04 c7 76 b8 82 03 94 37 45 92 b8 b8
       0.00012352265 -5.883632e-05 1.7644608e-05 -8.8010485e-05
0000c0 ea 09 d2 38 ad bf 2a 39 4e cd 05 b9 77 0e 98 38
       0.00010015427 0.00016283868 -0.0001276035 7.250619e-05
0000d0 62 85 3c 39 62 e6 04 3a e4 31 a2 37 49 5d 17 b9
       0.00017978766 0.000506973 1.9335137e-05 -0.00014435234
0000e0 05 cc e8 39 56 6c 6e 39 3d 96 2a 3a ea a3 43 3a
       0.00044402495 0.00022737807 0.00065073726 0.0007463085
0000f0 10 71 dc 35 96 1f eb b9 04 0a 02 39 4e 95 3f b9
       1.6424183e-06 -0.00044846226 0.00012401497 -0.000182708

arr_4 f4 [64]
000000 fa 41 b9 43 5a b1 9b 43 66 24 58 44 73 c0 47 41
       370.51544 311.38556 864.5687 12.484485
000010 80 eb 37 c4 31 32 a3 c4 ac f8 49 44 ba 8a 7a c4
       -735.6797 -1305.5685 807.8855 -1002.1676
000020 46 a4 38 c4 64 06 6f c4 2a b1 ee c4 81 e8 eb c4
       -738.5668 -956.09985 -1909.5364 -1887.2657
000030 2c 52 71 43 1c 23 c3 c4 e2 ad e1 44 5e 5a 7c 44
       241.32098 -1561.0972 1805.4338 1009.412
000040 70 59 81 c4 c8 10 be 44 1b 71 ab 43 36 dc c5 44
       -1034.7949 1520.5244 342.88364 1582.8816
000050 3b 0a 6e c4 66 01 42 43 77 be 83 c4 40 7e c5 44
       -952.15985 194.00546 -1053.952 1579.9453
000060 6a ac 7f c4 0f 37 df 44 60 c2 86 c4 fc 2a c2 c4
       -1022.694 1785.7206 -1078.0742 -1553.3433
000070 8f 4a d2 c4 82 48 96 43 66 2d e4 43 28 98 e3 44
       -1682.33 300.56647 456.35468 1820.7549
000080 13 d9 9a c3 9b a7 3e 44 84 7d b7 44 2a 51 85 c4
       -309.6959 762.61884 1467.9224 -1066.5364
000090 11 b1 ae c4 80 44 98 c3 2c af 9a 44 f6 fb 27 c4
       -1397.5333 -304.53516 1237.4741 -671.9369
0000a0 de c5 44 c4 92 39 7a c3 b2 3b 4e 43 ec f7 89 c4
       -787.0917 -250.22488 206.23318 -1103.7476
0000b0 6c e8 ba c4 70 22 8f c4 5d 42 69 43 4b 42 22 42
       -1495.2632 -1145.0762 233.25923 40.56474
0000c0 f4 55 df c4 3e 99 6e 44 bc 23 27 43 c8 6c ca 43
       -1786.686 954.3944 167.13959 404.84985
0000d0 58 f7 41 c4 ca ad 34 c2 23 13 b7 44 c4 3d 8d 44
       -775.86475 -45.169716 1464.598 1129.9302
0000e0 d8 98 91 c4 16 af 8a c4 61 3f bb c4 af fb 4c c4
       -1164.7764 -1109.4714 -1497.9806 -819.93256
0000f0 36 5d 6a 44 7b 2d 02 45 e7 14 77 c4 a2 ff 2b 44
       937.4564 2082.8425 -988.3266 687.99426

arr_5 f4 [64]
000000 44 01 9d 48 b4 6f 5d 48 9c 73 d5 49 70 d9 bf 43
       321546.12 226750.81 1.7485955e+06 383.69873
000010 9e 84 9a 49 62 9d 73 4a 0c b6 ba 49 4b 7d 0f 4a
       1.2658118e+06 3.9913845e+06 1.5295375e+06 2.3509308e+06
000020 f7 fc 9b 49 95 81 02 4a 45 3f 02 4b d7 46 fe 4a
       1.2778549e+06 2.1382132e+06 8.535877e+06 8.3321395e+06
000030 da 3a 05 48 0f 06 ae 4a 94 cf e8 4a d6 8d 11 4a
       136427.4 5.7024075e+06 7.628746e+06 2.3847575e+06
000040 78 e7 18 4a d0 33 a5 4a 30 60 86 48 92 e7 b2 4a
       2.505182e+06 5.413352e+06 275201.5 5.862345e+06
000050 d1 8d 01 4a de f2 ab 47 e8 a1 1e 4a 2a 50 b2 4a
       2.1226122e+06 88037.734 2.599034e+06 5.842965e+06
000060 8c 5d 15 4a f2 bd e3 4a 87 fb 25 4a 5c 4f ac 4a
       2.447203e+06 7.462649e+06 2.7194578e+06 5.646254e+06
000070 16 2a ca 4a c6 26 4e 48 9f e0 ed 48 0e be ec 4a
       6.624523e+06 211099.1 487172.97 7.757575e+06
000080 d1 05 5b 48 cc 20 a6 49 26 ea 99 4a 57 6a 22 4a
       224279.27 1.3609215e+06 5.043475e+06 2.6610138e+06
000090 df 8b 8b 4a 04 63 53 48 75 ab 5a 4a 89 11 81 49
       4.5726555e+06 216460.06 3.5826852e+06 1.0573291e+06
0000a0 0b 1f b1 49 b6 7e 0e 48 52 e2 c2 47 d4 f5 2d 4a
       1.4509774e+06 145914.84 99780.64 2.850165e+06
0000b0 e7 a3 9f 4a 10 44 3b 4a 86 5b f9 47 a4 3d 75 45
       5.2310915e+06 3.068164e+06 127671.05 3923.8525
0000c0 1e f2 e3 4a 4a 16 02 4a 41 3c 7f 47 9d 45 bb 48
       7.469327e+06 2.1313465e+06 65340.254 383532.9
0000d0 96 fb ab 49 71 51 98 45 70 26 99 4a c2 65 36 4a
       1.4088828e+06 4874.18 5.018424e+06 2.9884005e+06
0000e0 f0 c2 41 4a d9 be 2f 4a 90 32 a0 4a 86 29 c0 49
       3.174588e+06 2.8794142e+06 5.249352e+06 1.5741928e+06
0000f0 85 0e fb 49 9e e1 1a 4b 22 9c 0b 4a 2a ff 86 49
       2.0566566e+06 1.0150302e+07 2.2873685e+06 1.1058932e+06

arr_6 f8 []
000000 00 00 00 00 00 20 73 40
       306.0

arr_7 f4 [32, 64]
000000 8c 56 ec 3d 80 b7 45 bd 32 59 55 bd 08 52 bc 3d
       0.11539945 -0.048270702 -0.052087016 0.09195334
000010 a2 41 ce bc 73 82 dc bd 2e 7b 95 bd 54 4e 55 3c
       -0.02517778 -0.10767069 -0.07298885 0.013019163
000020 de d3 37 3d 96 62 d1 bd aa e4 82 3d 50 ca bc bd
       0.044879787 -0.10223882 0.063912705 -0.092182755
000030 9c d5 f3 bd 4a 7b d2 3d da ba e9 3d 06 2a b3 3d
       -0.11905977 0.10277422 0.11412592 0.0874825
000040 88 4c a7 bd 9e 77 e8 bd 9f 73 3b 3d e4 9c dd bb
       -0.08168894 -0.1135094 0.04576456 -0.0067630876
000050 e3 16 56 3d 0b 7c d3 ba 42 3d 1b bd 57 db 48 bd
       0.05226792 -0.001613499 -0.037900217 -0.049037304
000060 6e 57 ba bd ac d6 8f bd 56 b4 1e bd d4 96 9a bd
       -0.09098707 -0.07023367 -0.0387462 -0.075482994
000070 2e 41 6c 3d 19 18 b8 3d a4 54 86 bc 73 01 ba bd
       0.057679348 0.08988971 -0.016397782 -0.09082308
000080 ac 6a df bd d0 fb 94 bc 3a 58 cd 3d a8 d4 d0 3d
       -0.10909018 -0.01818648 0.100265935 0.10196811
000090 cd eb 72 3c 3c 70 94 bd 5e ae a0 3d f3 5e 70 bd
       0.014826727 -0.072479695 0.07845758 -0.0586843
0000a0 78 5b a6 3d c2 81 f9 bd 5e 0e ef bc 54 88 8c 3d
       0.08122915 -0.121829525 -0.029181655 0.0686194
0000b0 5e bc d0 bd 9e 0f 72 3d 1a 39 b3 39 f1 9c 86 bc
       -0.10192178 0.059096925 0.00034184085 -0.016432257
0000c0 f4 75 d9 3c f2 ff 3f bd ad 45 98 bd 62 ba 16 bd
       0.026545502 -0.046874948 -0.074351646 -0.036798842
0000d0 14 c0 c3 bd 82 8e a0 bd 16 c7 0d bd d2 a5 45 bd
       -0.0955812 -0.07839681 -0.03461369 -0.04825384
0000e0 e1 d7 8b bc e2 09 9c 3c 3e 61 2e bd 4c a4 c3 bd
       -0.017070713 0.019047681 -0.042573206 -0.095528215
0000f0 59 87 d3 bd da a2 97 bd 8e 14 28 3c a4 50 ad 3d
       -0.1032855 -0.07404108 0.010258807 0.084626466
000100 e2 58 bb bd 5a cd a8 3d 2c 6a 4e bb 82 dc 94 3d
       -0.091478124 0.08242293 -0.003149639 0.07268621
000110 14 e4 f9 bd de 1d 58 bc 5e 56 f9 3d dd 6d ae bd
       -0.122017056 -0.013190715 0.12174676 -0.085170485
000120 5a e3 75 bd 6c 3c 47 3d 1b 81 99 bd 92 60 e8 bd
       -0.060031272 0.048641607 -0.07495328 -0.11346544
000130 84 ce 34 3c d8 be 03 3c d4 74 f4 3d 92 b9 c5 3d
       0.011035565 0.008041106 0.11936346 0.09654535
000140 47 fa be bd 10 a4 d5 bd 9a 94 a0 3c 1b 6b 48 3d
       -0.0932508 -0.10431683 0.019602109 0.04893027
000150 2c 8d e2 bd 49 9b 9f 3d c9 3f a5 bd 46 7d 92 bd
       -0.11062083 0.0779329 -0.08068807 -0.071528
000160 d0 46 a2 3d 05 84 bd 3c ac e6 f2 bd 03 76 e5 bb
       0.07923663 0.02313424 -0.118604034 -0.0070025935
000170 e3 c3 9a 3d 6c d7 34 3d 62 13 f5 3c 6a c7 35 3d
       0.07556894 0.044150755 0.029916469 0.04437963
000180 d7 18 9c 3d 66 7b 4d 3d f4 16 a8 bd 8e 70 9b bd
       0.07621925 0.05016651 -0.08207503 -0.075898275
000190 67 2c 9c 3d f6 12 0a 3d 10 e7 6a bd 85 de f8 bd
       0.076256566 0.03370949 -0.057349265 -0.12151817
0001a0 50 c0 d1 3c 2c eb e9 bd c4 83 9b 3d fa 2e 29 3b
       0.025604397 -0.114218086 0.07593492 0.0025815354
0001b0 77 2b f0 3c 28 00 a5 3d 2a 04 0b bc f2 25 98 3d
       0.0293176 0.080566704 -0.0084848795 0.074291125
0001c0 8f 5f e3 bd 32 9b d5 bd 04 57 ca 3d 0c 37 29 3d
       -0.11102211 -0.10429992 0.09879878 0.041312262
0001d0 35 98 7d bd a0 10 3b 3d 6e 07 2e 3d 6c df 92 3c
       -0.061912734 0.04567015 0.042487554 0.017928801
0001e0 96 0a 7e bc 38 c8 dc 3d c2 cb 7e bd 51 4e 42 3c
       -0.015505454 0.10780376 -0.062206037 0.011859492
0001f0 b3 a8 c3 3d 0d d6 ba bd 86 83 59 3d 18 d2 b3 bd
       0.09553661 -0.09122858 0.053103946 -0.087803066
000200 7c d1 08 3d 0e 04 f6 3c 6a ac 8c 3d 0b d1 81 bd
       0.033402905 0.03003123 0.06868823 -0.063387
000210 5d 6e 25 bd 36 9a 0a bc 04 85 b4 3d 1b d0 82 3d
       -0.040388454 -0.008459618 0.08814433 0.06387349
000220 2d 7d 86 3d 92 37 a5 3c 80 1b 08 bd ad 0a a6 bd
       0.06566844 0.0201681 -0.03322935 -0.08107505
000230 ba b7 f0 bc d2 6c 90 bd 97 fb c4 bc ce 34 75 bd
       -0.029384483 -0.07052006 -0.024045749 -0.05986481
000240 a6 3d ec bd 2d 56 5f bd 26 fc e7 bd 8c 85 a6 3d
       -0.11535196 -0.054525543 -0.113273904 0.08130941
000250 94 23 4e bc ea 70 a9 3d 99 f6 7e bd ba 83 3e 3d
       -0.012581725 0.0827349 -0.062246893 0.046512343
000260 60 66 28 bc 48 5d 7f bd f2 f1 a4 bc 9e b3 cf bd
       -0.010278314 -0.06234482 -0.0201349 -0.10141681
000270 c6 4c 8e 3d d0 f7 90 3d 5c b8 8d bd d6 d3 16 bd
       0.06948237 0.070785165 -0.069199294 -0.036823116
000280 44 bc a3 bb a2 46 d1 3d ac 82 e3 3d f8 e8 43 3d
       -0.0049968082 0.1021855 0.11108908 0.0478296
000290 77 54 9c bd ae a8 c4 bd b8 b0 a9 3d a2 55 4c bc
       -0.07633298 -0.096024856 0.082856596 -0.012471588
0002a0 90 53 50 3c 60 b9 a6 bd f6 75 6d bd 10 9e 8c bd
       0.012715235 -0.08140826 -0.057973824 -0.068660855
0002b0 50 46 86 bd 36 11 d5 3d 64 c7 ad bd d2 0b 47 3d
       -0.0655638 0.10403673 -0.08485296 0.048595257
0002c0 69 36 ea bd c8 e0 1a 3d e2 ae c2 bd 66 71 9b 3d
       -0.11436159 0.037812024 -0.095060125 0.075899884
0002d0 5c 0d 9b 3d a8 67 9a bb db 75 df bd 79 fe ee bd
       0.075709075 -0.004712064 -0.10911151 -0.116696306
0002e0 66 c1 7f bc 88 6c 6a 3d 02 8a bc 3d 7a fc af bd
       -0.015610075 0.05723241 0.092060104 -0.08593078
0002f0 ea 5c 94 bd 2b 9d 7f 3d 73 bf 50 bd b6 69 f6 bd
       -0.072442845 0.062405746 -0.05096383 -0.120318815
000300 10 a3 96 bd 45 b0 ed bd 92 29 c3 3d 06 e8 9f 3c
       -0.073553205 -0.11605886 0.09529413 0.019519817
000310 16 85 a9 bd df 19 d2 bc 6b a8 3b 3d 83 df d8 3c
       -0.08277337 -0.025647102 0.045814913 0.026473766
000320 2b 06 62 bd b0 30 e8 bd c2 ec a7 bb 9a d3 ee bd
       -0.055181663 -0.113374114 -0.0051246593 -0.116614535
000330 5a 7b d7 bc 7c f0 66 3d ce 5b 87 bd 4e e6 8c bd
       -0.026303936 0.056381688 -0.06609307 -0.06879865
000340 2e 76 7f 3c b9 f4 31 3d f6 6f 14 3b dc 85 3d bd
       0.015592141 0.043446276 0.0022649742 -0.046270236
000350 7d 64 84 bd 14 fb 97 bd 08 b9 7d 3d 25 e0 ff 3c
       -0.06464479 -0.07420936 0.061944038 0.03123481
000360 22 56 b2 bd 8a da 91 bc ae c5 8c bc 40 03 fc 3d
       -0.08707835 -0.017804403 -0.017184105 0.123053074
000370 bd 71 1b 3c 58 3a e0 bd 3e 3c 83 3c 55 8b 9b 3d
       0.009487567 -0.10948628 0.016019937 0.07594935
000380 85 f8 56 bd fe 4b 5b 3d 18 6f d9 bd 9c c5 bb 3c
       -0.0524831 0.05353927 -0.106168926 0.022921376
000390 d2 60 90 3d 8e e6 10 3d 45 f5 b3 3c 3a 6f a2 3d
       0.07049717 0.035376124 0.02196754 0.07931371
0003a0 52 02 30 3d f0 d3 da bd 94 8b 90 bd 44 b4 34 3d
       0.042970963 -0.10684955 -0.070578724 0.044117227
0003b0 6a cc bc bd 3d 56 a4 3d 36 c3 cc bd 98 a7 c2 bd
       -0.092186764 0.08024261 -0.09998171 -0.09504622
0003c0 9b 59 bc 3d 32 8a 2c 39 9a 7f a4 bd 6c 83 3d 3d
       0.091967784 0.0001645468 -0.080321506 0.04626791
0003d0 62 09 69 3d 10 1d 7e bd f3 da c9 bd 42 da dd 3d
       0.056893714 -0.062039435 -0.098562144 0.10832645
0003e0 5e c2 eb bd 7d 42 98 bc 6a 26 77 3d 90 bb 5a 3d
       -0.11511682 -0.018586392 0.06033937 0.05340153
0003f0 d0 d7 41 3d b8 1e 2e bd 26 f0 aa bc 06 b7 b1 bd
       0.047324955 -0.042509764 -0.020866465 -0.08677487

arr_8 f4 [32]
000000 00 2a 67 3b 1a a1 f7 bd fc 97 39 bd d2 86 d5 3d
       0.0035272837 -0.120912746 -0.04531096 0.104261056
000010 36 fb dc bd 38 bf e0 bd 52 e2 a5 3d 12 f9 b2 3d
       -0.10790102 -0.10973972 0.08099808 0.08738913
000020 2e 33 cc 3d 88 f8 ba bd e0 b7 cb bd 18 38 24 3d
       0.09970699 -0.09129435 -0.09947181 0.040092558
000030 d4 16 94 3d 90 5f e5 bc 5e b0 ac 3d 5c 81 91 bd
       0.072309166 -0.02799967 0.08432077 -0.071047515
000040 e8 10 8e 3c 28 b1 c2 3d 2e bc ca 3d 8c f2 b7 bd
       0.017342046 0.09506446 0.09899174 -0.08981809
000050 64 aa ac bd 92 14 e2 bd 18 f1 c4 3d 1e 7d cd bd
       -0.08430937 -0.1103908 0.096162975 -0.1003363
000060 18 2c e8 3c de fb 99 bd c4 dd 9e 3d 08 f4 32 bd
       0.028341338 -0.07518743 0.07757142 -0.043689758
000070 38 8f 8c bd 12 f4 c9 3d e4 0e 6c 3d d8 70 91 3d
       -0.06863254 0.09861006 0.05763139 0.07101601

arr_9 f4 [32]
000000 b0 07 80 3f ce 14 80 3f e4 fc 7f 3f 2c 11 80 3f
       1.0002346 1.0006349 0.99995255 1.000524
000010 5d 02 80 3f 93 e1 7f 3f 44 16 80 3f 8c 10 80 3f
       1.0000721 0.99953574 1.0006795 1.000505
000020 7b c2 7f 3f ba 16 80 3f b3 0a 80 3f 94 f2 7f 3f
       0.9990613 1.0006936 1.0003265 0.9997952
000030 d6 d4 7f 3f 85 2d 80 3f 18 ce 7f 3f 62 f2 7f 3f
       0.99934137 1.0013891 0.9992385 0.9997922
000040 f6 ca 7f 3f a4 ba 7f 3f 20 14 80 3f 7a a0 7f 3f
       0.9991907 0.99894166 1.0006142 0.9985424
000050 59 16 80 3f fe b3 7f 3f 5a 0b 80 3f e9 14 80 3f
       1.000682 0.9988402 1.0003464 1.0006381
000060 be 0a 80 3f d8 13 80 3f 24 0b 80 3f 81 bb 7f 3f
       1.0003278 1.0006056 1.00034 0.99895483
000070 d0 d6 7f 3f 86 f9 7f 3f 6a 13 80 3f a0 0a 80 3f
       0.9993715 0.9999012 1.0005925 1.0003242

arr_10 f4 [32]
000000 28 8e 88 39 14 f5 08 3a b2 25 e9 b8 1e 45 50 3a
       0.00026045856 0.0005224508 -0.00011117327 0.00079448696
000010 7e 4e 55 39 76 4d 80 b9 38 2f 2d 3a fb 04 21 3a
       0.00020342504 -0.00024471775 0.00066064624 0.0006142405
000020 c1 9f a7 37 bc 60 1c 3a 24 d7 96 39 f0 e4 55 b9
       1.9982343e-05 0.0005965342 0.00028770522 -0.00020398549
000030 3c f3 50 b9 40 b3 ab 3a 0a de 21 ba a3 67 91 b7
       -0.00019927038 0.0013099685 -0.0006174749 -1.7333607e-05
000040 88 d3 a9 b9 1e 0b f0 b9 b8 45 0c 3a 6e e5 ed b9
       -0.00032391795 -0.0004578465 0.0005350965 -0.000453751
000050 bb 04 36 3a 1e c4 89 b9 60 1c e6 39 77 33 2d 3a
       0.0006943454 -0.00026276795 0.0004389016 0.0006607095
000060 52 06 dd 39 56 d5 6f 3a 5e 51 fa 38 d4 e3 48 b8
       0.00042157114 0.0009148916 0.00011936085 -4.7895897e-05
000070 c0 41 56 b9 8c dd c2 38 62 c0 0e 3a fe 9e db 39
       -0.00020433124 9.291907e-05 0.00054455374 0.00041889393

arr_11 f4 [32]
000000 13 51 e7 be c2 b8 29 be f4 ed c2 be 1a b9 6f be
       -0.45179042 -0.16574386 -0.3807217 -0.23410454
000010 14 e6 bb 3e f6 fe 4b be 0a 24 f0 bb 96 5c 46 3e
       0.36698973 -0.19921479 -0.007328515 0.19371256
000020 78 1b 61 3d 08 4c 93 ba 6e 34 37 3e 14 ce 97 3e
       0.054957837 -0.0011237869 0.17891094 0.29649413
000030 be 20 b1 3d f6 f1 37 be f0 bd 7d be ec 5b 76 be
       0.08648823 -0.17963395 -0.24779487 -0.24058503
000040 00 eb 9e bc 72 20 1c 3e 9a 05 18 be 7b 8a 8d bc
       -0.019399166 0.15246752 -0.14845887 -0.017277947
000050 a2 47 57 3e 67 8e 95 bd 80 61 84 3d c8 90 99 3e
       0.2102342 -0.07302552 0.06463909 0.29993272
000060 e4 40 92 be ca ca 85 be 66 91 36 be 96 6c 62 3e
       -0.28565133 -0.26131278 -0.17828903 0.22111735
000070 f4 44 e7 3d ee 04 b5 3e a3 51 55 3e 7b 17 87 be
       0.11292449 0.35355324 0.20831923 -0.26385102

arr_12 f4 [32]
000000 34 a5 83 3d ea d8 dc 3e 6b da 7d 3d df 30 8b 3e
       0.06427994 0.43134242 0.061975878 0.27185723
000010 b0 9d f0 3d 43 0c 30 3e b3 a6 b0 3e 4f 09 1c 3e
       0.117488265 0.17192177 0.3450218 0.15237926
000020 60 8a 4c 3d 1f 9c 9d 3e 54 03 a0 3d 0e 16 5b 3f
       0.049936652 0.30783173 0.07813135 0.8558053
000030 30 cb 98 3d 77 85 13 3e 09 7a ca 3d db 52 49 3e
       0.0746063 0.14406382 0.098865576 0.19660513
000040 bd 97 1b 3e 48 11 fa 3e 7c e4 3e 3d cc 49 42 3e
       0.15194602 0.4884131 0.04660462 0.18973464
000050 9e a5 62 3d 64 af 0e 3e bd b0 85 3d e3 06 09 3e
       0.055333726 0.13934094 0.06527851 0.13381533
000060 78 01 9c 3d 08 2c 63 3d 7b 19 c7 3d 2c 10 80 3d
       0.07617468 0.055461913 0.09721657 0.062530845
000070 e8 db 98 3d d8 88 10 3e 39 c8 59 3e e6 15 c9 3d
       0.07463819 0.14114702 0.21267785 0.0981863

arr_13 f8 []
000000 00 00 00 00 00 20 73 40
       306.0

arr_14 f4 [16, 32]
000000 ad 87 0a bd 0e 78 5d 3d 3e 2f 4d 3b 2d 33 72 3d
       -0.033820797 0.05406957 0.0031308676 0.059130836
000010 ac e2 b8 bd 12 f1 a2 3d d3 5b 1c 3e 84 db 93 bd
       -0.09027609 0.07956137 0.15269403 -0.07219604
000020 38 3d 25 3e 88 15 1a be e2 fc 79 bd c4 9f 39 bd
       0.16136634 -0.15047276 -0.061032183 -0.04531838
000030 da 54 6a 3d f9 84 29 be b4 1a 41 bb e9 39 58 bd
       0.057209827 -0.16554631 -0.002946538 -0.052789602
000040 a8 e1 0b 3d ce 53 2e 3e 36 32 78 bd a4 2d 02 3e
       0.03415075 0.17024156 -0.06059476 0.12712723
000050 60 cd ed 3d 35 ad 33 3c 3b 94 ec bd 80 1a 28 be
       0.11611438 0.010966589 -0.1155171 -0.16416359
000060 df 78 5a 3d 34 17 e7 3d bb 36 a6 3d e6 56 04 3e
       0.053337928 0.112837225 0.08115908 0.12923774
000070 4e dc 2d bc b4 28 a0 bd 31 ad b5 bd 76 78 b8 bd
       -0.010611607 -0.078202635 -0.08870924 -0.09007351
000080 d6 71 a6 bd a0 93 af bd 5d 10 b7 3d d6 59 3d bd
       -0.08127181 -0.08573079 0.08938668 -0.046228252
000090 1c 41 df bd a4 7f 77 3d 3d c1 15 3e 64 0c 56 3d
       -0.109010905 0.060424462 0.14624496 0.05225791
0000a0 ba 49 30 3e 32 73 28 3e ba fb df 3d cb 87 75 bb
       0.17215624 0.16450194 0.10936685 -0.0037464972
0000b0 a3 a6 29 be 18 eb 2d be b0 41 d5 3b 58 6e 1e be
       -0.16567473 -0.16984212 0.0065080747 -0.1547178
0000c0 a7 ec f3 bc ca 47 ec bd d4 c2 11 be 48 b1 29 3e
       -0.02977593 -0.1153713 -0.14234477 0.16571534
0000d0 c0 9d 90 bd 34 8b 1f 3e ea 01 1f be 0c 70 7a 3d
       -0.070613384 0.15580446 -0.15528074 0.061142012
0000e0 29 f5 aa bd 03 6b c7 bd 8c b9 13 3c 51 e2 20 3e
       -0.08347542 -0.09737208 0.009016406 0.15711333
0000f0 b4 d6 34 be 0e 2e 9b bd b0 1c 9f 3d f9 5d 8e 3d
       -0.17660028 -0.075771436 0.077691436 0.069515176
000100 e4 ad 90 3b 36 a5 1b be 21 6e 70 3d 76 81 a5 3d
       0.0044152606 -0.15199742 0.058698777 0.08081333
000110 ca 0b c2 3c bc b3 9d bd ed c4 08 be d4 97 64 3b
       0.023687262 -0.07700297 -0.13356371 0.0034880536
000120 5c 8f f4 3d 9e b7 8b bd 8c 84 2f 3e 66 20 14 be
       0.11941406 -0.068221316 0.17140406 -0.14465484
000130 c2 8f 07 be b5 f7 08 be e8 03 d8 bd a2 80 83 bd
       -0.13238433 -0.13375743 -0.1054762 -0.06421019
000140 ce fd 94 bd b8 e6 f1 bd a0 68 81 3c 7c 89 1b 3e
       -0.07274972 -0.11811584 0.01579696 0.15189165
000150 a0 99 29 3d 8b 5b 51 bd d4 4d d7 3c f2 81 df 3c
       0.041406274 -0.051112693 0.026282229 0.027283642
000160 08 0e b3 bd a6 da 1e be 62 e5 ae 3b da 07 41 3d
       -0.087429106 -0.15513095 0.005337403 0.04712663
000170 d0 ce d3 3d ee ac 26 3e d8 b5 14 3e b4 6f 13 be
       0.10342181 0.16276905 0.14522493 -0.1439808
000180 6a 19 7f bd f2 39 8f 3a 40 e1 0a be 94 f9 c1 3d
       -0.062280096 0.0010927303 -0.13562489 0.094714314
000190 66 03 86 3d af c2 08 3e 20 c0 1a 3e 00 02 34 3e
       0.06543617 0.13355516 0.15112352 0.17578888
0001a0 5c 4d 05 3e 68 d2 aa 3d 81 ef c3 3a 76 37 68 bc
       0.13017792 0.08340913 0.0014948697 -0.014173379
0001b0 c3 d7 31 3d ba 4f 09 3e 9e ba bc 3d ba fa e3 3c
       0.043418657 0.1340932 0.09215282 0.027829517
0001c0 39 c5 65 3c 84 c6 ba bd d3 cc 83 bd c4 78 2f 3e
       0.014024072 -0.09119895 -0.064355515 0.17135912
0001d0 3e 27 a4 3c d0 ee d2 bd fa 8c 2b 3e 20 15 8f 3c
       0.020038243 -0.10299456 0.16752997 0.017466128
0001e0 70 63 9c bd a4 92 92 3d 79 3b e9 3d 1a fc 13 3e
       -0.07636154 0.07156876 0.11388297 0.14451638
0001f0 1c e9 91 3d 8e f7 9e 3d 0a b7 08 be 81 d0 04 3e
       0.0712454 0.07762061 -0.13351074 0.12970163
000200 44 1b 15 3d 1e a5 b0 3c 3e 52 d1 3d 4a 61 ad bc
       0.036402956 0.021563109 0.102207646 -0.021164555
000210 d9 6d 31 bc b4 84 24 be ee 96 bf 3a e8 4c 19 3e
       -0.010829412 -0.16066247 0.0014617124 0.14970744
000220 c7 71 28 be 28 b8 bd bc e8 2f 4c 3d ba c9 0c 3e
       -0.16449653 -0.023159102 0.049850374 0.13748828
000230 fd db 02 be d3 3f 92 3a 9e 87 31 be 90 3b bc 3d
       -0.12779231 0.0011157937 -0.1733689 0.09191048
000240 3f 17 07 be 54 f4 83 bd e2 46 96 bd 4e 2d 11 be
       -0.13192461 -0.06443086 -0.073377386 -0.14177439
000250 4e f0 28 be 08 92 b8 3c 4c 70 78 bd b4 11 04 3e
       -0.16497919 0.02253057 -0.06065397 0.12897378
000260 28 4a 1f 3e 5c 29 8b bd 18 fe 22 3e 6a 1e 02 3d
       0.15555632 -0.06794998 0.15917242 0.031767286
000270 53 2e 0e bd 6a c3 a0 3d 16 bd f4 3d 20 35 fb bd
       -0.034712147 0.07849772 0.11950128 -0.12265992
000280 d0 3c eb 3d 7c f4 34 be cc 47 34 3e 6c ce 1c 3e
       0.114862084 -0.17671388 0.17605513 0.15313119
000290 66 4c 1c 3e 36 93 90 39 2e 12 ef 3d 72 2e 15 3e
       0.15263519 0.000275755 0.116733894 0.14568499
0002a0 dc 83 78 bd 54 f0 cc 3d d0 b0 08 3e c2 7c ee 3c
       -0.060672626 0.100067765 0.13348699 0.029112224
0002b0 6e ad aa bc fc 16 37 bc ba 0e dc 3d 82 e7 f1 3c
       -0.02083465 -0.0111749135 0.10744996 0.029529337
0002c0 d3 06 ce bd f2 3e 5a 3d 70 06 10 bc 90 f0 45 bc
       -0.10059895 0.053282686 -0.008790597 -0.01208128
0002d0 2e 19 b3 3d 58 eb b4 bc 49 a7 df 3d c2 30 bc bd
       0.08745037 -0.022084877 0.10920579 -0.09188987
0002e0 d3 b2 1f be 37 a4 00 3e 14 9b 20 bd 44 52 e4 bb
       -0.1559556 0.12562643 -0.039210394 -0.0069678146
0002f0 9a 61 48 3d cd f4 99 3c e7 b9 09 be 61 54 20 3d
       0.048921205 0.018793488 -0.13449822 0.03914297
000300 18 1a 16 3e 98 75 34 3e 12 8d 24 be 36 42 ab 3d
       0.14658391 0.17622983 -0.16069439 0.08362238
000310 48 a0 9c bd 65 50 0a 3e 99 b5 fb bd 56 0e f8 bd
       -0.07647759 0.1350723 -0.122904964 -0.12112109
000320 6a c8 10 3e 87 f1 9d 3d fa b3 d9 bd 5d 9e 23 3e
       0.14138952 0.07712083 -0.10630031 0.1597838
000330 de 67 32 be a7 6c 20 bd 16 65 d6 bd da 28 27 3d
       -0.17422435 -0.03916612 -0.10468499 0.040810443
000340 c8 ee fd 3c 80 1f 03 be 00 da 22 3e 7a cb ab bd
       0.030997649 -0.12804985 0.15903473 -0.083884194
000350 5a 09 a2 3d 52 eb 30 3e 5a 67 33 be ba 21 8b bd
       0.0791194 0.17277268 -0.17519894 -0.06793542
000360 3e 00 e4 bd 35 c4 c2 bb a4 49 dc bc 2a aa 22 be
       -0.11132859 -0.0059438 -0.026890583 -0.15885225
000370 fa 92 ad 3d b1 82 fb 3d 8e 26 e0 bd a1 45 8b bd
       0.08475299 0.12280787 -0.10944854 -0.0680039
000380 d2 a4 35 3e f6 28 e5 bd 00 6c 21 be dc 87 08 be
       0.17738655 -0.11189453 -0.15763855 -0.13333076
000390 34 c2 00 3e bf 16 29 3e 76 da 11 3e 43 59 b3 bd
       0.12574083 0.16512583 0.14243492 -0.0875726
0003a0 cb ae d6 bd 48 77 9e 3d b0 c5 1b 3e b4 24 0b be
       -0.10482558 0.07737595 0.1521213 -0.1358822
0003b0 8e 82 a3 bd 48 b1 0e 3e fb b8 01 be 68 db ac bc
       -0.07983886 0.13934815 -0.1266822 -0.021100715
0003c0 01 e3 1a be f6 a4 b8 bd fc c2 09 3e ba 6b 8d 3d
       -0.15125658 -0.09015839 0.13453287 0.06905313
0003d0 a6 86 33 be 32 81 16 3e d2 93 d5 3b fe 3e 3a 3d
       -0.17531833 0.14697722 0.0065178657 0.04547023
0003e0 de d8 6d 3d b0 05 bb bd e0 d6 00 3c 80 59 78 3c
       0.05806815 -0.09131944 0.00786373 0.015158057
0003f0 75 0b 06 be ba fa a7 3d af 60 1b 3e 09 97 0f bc
       -0.13090308 0.08202119 0.151736 -0.008764037

arr_15 f4 [16]
000000 0d bb 2b 3e 2a 5a d2 3d 29 c3 28 3e b4 70 11 bd
       0.16770573 0.10271104 0.16480698 -0.035507873
000010 10 0f 15 be 8a 96 a3 3d a0 a1 de bd 48 12 be bc
       -0.14556527 0.079876974 -0.10870671 -0.023202077
000020 87 9b b1 bd 3c cb 40 bd cd 86 0a be 00 df 22 bb
       -0.086722426 -0.04706882 -0.13527985 -0.0024852157
000030 e0 c1 14 bc 4e e0 7d bd 57 b3 0a 3e 88 6f 61 3d
       -0.0090794265 -0.06198149 0.13544975 0.055038005

arr_16 f4 [16]
000000 be 75 80 3f 87 69 80 3f ae f4 7f 3f 86 42 80 3f
       1.0035932 1.0032204 0.99982727 1.0020301
000010 62 ac 7e 3f 8f 43 7e 3f 68 3a 7f 3f 84 4b 80 3f
       0.99481785 0.99321836 0.99698496 1.0023046
000020 cd 91 80 3f f6 81 80 3f e0 ee 7f 3f 14 6f 80 3f
       1.0044495 1.0039661 0.9997387 1.0033898
000030 78 b0 80 3f 0a 80 80 3f c2 78 80 3f ba e7 7f 3f
       1.0053854 1.0039074 1.0036852 0.9996296

arr_17 f4 [16]
000000 f8 5a c6 3b b0 24 b8 3b 8c 42 c3 b9 65 d1 1b 3b
       0.006053325 0.005619608 -0.0003724288 0.0023775932
000010 4f 32 22 bc 00 0d 05 bc 26 b5 ad bb f3 86 67 3b
       -0.00989969 -0.008120775 -0.0053011356 0.0035328239
000020 87 48 d9 3b 6c fd 01 3c a2 e5 c0 b9 4c 6a 3a 3b
       0.0066309604 0.007933956 -0.00036792184 0.0028444706
000030 6b 9a 52 3c 08 1e b6 3b 92 52 fa 3b a8 53 21 ba
       0.012854199 0.005557779 0.0076392377 -0.00061541284

arr_18 f4 [16]
000000 b3 ad 5f 3e bf ad 6e 3c da f4 e6 bc 72 ed 00 3f
       0.21843605 0.0145677915 -0.028192926 0.5036231
000010 a3 19 74 be 46 bd cf 3e a7 a8 2e be a0 9b 52 3c
       -0.23837905 0.40574092 -0.17056523 0.012854487
000020 9e 79 e8 3b 7c 1a 05 be ce 0b 31 3d 5c c0 86 3e
       0.007094576 -0.12998384 0.04322415 0.26318634
000030 a9 c5 d5 bd f9 8a 0c 3d 2d 6d 8f 3e b6 1f af 3d
       -0.10438091 0.034312222 0.28012982 0.0855097

arr_19 f4 [16]
000000 4a 13 0b 3e dc 84 50 3e 53 b6 84 3e be 4c 6c 3e
       0.13581577 0.20363182 0.25920352 0.2307615
000010 3a 71 5f 3e 2a 33 28 3e f2 60 36 3e 12 e0 57 3e
       0.21820536 0.16425768 0.17810419 0.2108157
000020 8a 53 3c 3e 47 05 ca 3d 1e 0e 2e 3e 28 eb c2 3e
       0.18391243 0.09864288 0.16997573 0.38070035
000030 0e 04 6c 3e c7 8e 05 3e 4a cc 36 3e 46 24 45 3e
       0.23048422 0.13042746 0.17851368 0.19252118

arr_20 f8 []
000000 00 00 00 00 00 20 73 40
       306.0

arr_21 f4 [1, 16]
000000 f4 f3 47 be de 18 46 be 0b 0e 27 bc 2e 3b d8 bd
       -0.19526654 -0.19345424 -0.010196219 -0.10558163
000010 f6 66 0f 3e e2 fa 4e 3e 3a 3e c4 3d a8 6a f1 bd
       0.1400412 0.20212892 0.09582181 -0.11787921
000020 1e 72 88 be 60 bf 4c be 5f e4 57 bb 80 11 22 be
       -0.26649565 -0.19994879 -0.0032942516 -0.15826988
000030 82 e1 7e be 56 1a 32 be 1a 9e 36 be 5a 2c fa 3a
       -0.24890712 -0.17392859 -0.17833748 0.0019086704
