source_code/ServerSide/Logs/global_weights.npz (npz, 44218 bytes, 8 tensors)

arr_0 f4 [64, 122]
-0.016020749 0.07749456 -0.009029389 -0.006123611 -0.029484466 0.06226334 -0.046055272 0.03418109
0.06267987 0.012991399 -0.041906398 -0.0821864 -0.06659791 0.040246133 -0.07575531 0.07180313
0.019110229 0.07942345 0.07770161 0.053719476 -0.051154386 0.028786905 -0.026323799 0.0010129963
0.012643274 0.11018366 -0.028029444 -0.05686333 -0.06447156 -0.029924924 0.047127247 -0.032732494
-0.07056109 0.11562562 0.017625446 -0.02996712 -0.005744497 -0.08563564 -0.059738256 -0.0013966272
-0.025139082 0.09189134 -0.05076537 -0.002311428 0.061537277 0.0571971 0.07926303 -0.0722896
0.06673497 -0.09017161 -0.06880501 0.027071632 0.06351909 -0.011355294 -0.012785554 -0.07354251
-0.09601532 0.028978013 0.004892162 -0.034830302 -0.044666626 0.00042766257 0.041403666 0.009165382
0.07207201 0.0259985 -0.040829472 0.08695385 0.022711555 0.0027127776 0.021841787 -0.0750977
-0.06540893 -0.06685537 -0.055552393 -0.03547032 0.0110768005 -0.008777749 0.082046464 -0.06457057
0.053046245 -0.003759857 0.008617965 0.040706493 -0.042739324 -0.054564044 0.018352356 0.0001985323
-0.09083301 0.04398299 -0.07012431 -0.012281114 -0.038608402 0.089769006 -0.049173757 0.08608901
-0.020318598 0.04949733 -0.035540495 0.079889886 -0.07500945 -0.015581045 -0.035154648 -0.026548672
0.07304332 -0.043932218 -0.042727824 -0.02689111 -0.064304054 -0.0018725629 -0.059631146 -0.056897204
0.06530692 -0.07437725 -0.026999518 -0.07281798 0.01266839 0.04049986 0.09121559 0.08254347
0.049196508 0.07037848 -0.04994075 -0.027872093 -0.11331486 0.002424757 0.0712765 0.035836935
-0.010402998 0.055472303 -0.026207058 0.06303443 0.0043512285 0.046575688 0.14120904 -0.0185192
-0.07804093 -0.038373202 -0.075268194 0.039575815 -0.028949127 -0.05661291 0.031198269 -0.050228745
0.013102043 -0.056349635 0.0073445956 0.13335545 0.09498903 -0.014083749 0.011874463 -0.04071292
0.001386262 -0.094227105 0.085352816 -0.073291235 0.031421132 -0.05969029 0.04898981 -0.08816084
-0.084300086 -0.028341338 -0.013912737 0.07436134 -0.021123635 -0.023369253 0.06865673 -0.06282407
-0.031269133 -0.0764616 0.023674972 0.0016282421 0.067499936 0.026530664 0.041367777 -0.06597388
0.076835394 0.034890942 0.04308278 0.021956665 0.0054707266 0.029547013 -0.055120975 -0.03849166
0.064359576 0.018164556 0.04399747 0.054480165 -0.026730532 0.03054377 0.06951384 -0.018717151
-0.03420569 0.07307709 -0.012004134 0.07859737 -0.060740158 -0.029997572 -0.0719095 0.073559776
-0.06686409 -0.05800364 0.036060885 0.067331806 0.050930582 0.012710771 -0.048448246 -0.015376191
0.044970773 -0.05005645 -0.071030095 0.050913848 -0.028093114 -0.02644009 -0.07996717 0.01219962
-0.042973854 0.05068189 0.040709548 0.015565688 0.023480704 0.019075159 0.0039636577 0.07254718
-0.032276668 0.010374823 -0.089135036 -0.021983419 -0.060316615 0.048980318 0.07795529 -0.029449748
-0.008961406 0.08055851 -0.009300273 -0.062067736 0.03634721 -0.07389681 -0.049368516 0.08146827
-0.0308135 0.07822176 -0.065917656 -0.070767015 -0.04549122 -0.07442267 -0.28340742 0.06601094
0.073965505 0.04937698 -0.059509024 -0.005447354 -0.056013416 0.06010189 -0.073501945 -0.11106571
00000000: f23d 83bc 78b5 9e3d 01f0 13bc 92a8 c8bb
00000010: 6889 f1bc d807 7f3d 74a4 3cbd 7801 0c3d
00000020: 4e5e 803d e0d9 543c 0ba6 2bbd 5851 a8bd
00000030: 7c64 88bd 21d9 243d 9a25 9bbd 850d 933d
00000040: 0e8d 9c3c c3a8 a23d 0622 9f3d f408 5c3d
00000050: 4387 51bd 84d2 eb3c 02a5 d7bc 84c6 843a
00000060: bc25 4f3c f9a7 e13d 019e e5bc 86e9 68bd
00000070: aa09 84bd 1d25 f5bc 8008 413d 8212 06bd
00000080: 5582 90bd 20cd ec3d 3d63 903c 9b7d f5bc
00000090: 553c bcbb bd61 afbd 1ab0 74bd 080f b7ba
000000a0: 7af0 cdbc 8731 bc3d 59ef 4fbd 547b 17bb
000000b0: 830e 7c3d 8247 6a3d a854 a23d 920c 94bd
000000c0: 58ac 883d e5ab b8bd a4e9 8cbd 54c5 dd3c
000000d0: 4c16 823d 8e0b 3abc 807a 51bc 759d 96bd
000000e0: aea3 c4bd 4c63 ed3c 6e4e a03b 38aa 0ebd
000000f0: 5af4 36bd e637 e039 e496 293d 662a 163c
00000100: 7d9a 933d cefa d43c ce3c 27bd dc14 b23d
00000110: 950d ba3c dbc8 313b 8ced b23c d3cc 99bd
00000120: 1ef5 85bd 78eb 88bd e88a 63bd 5449 11bd
00000130: 787b 353c 8cd0 0fbc fa07 a83d 933d 84bd
00000140: 0547 593d ef67 76bb 5d32 0d3c dabb 263d
00000150: 6e0f 2fbd 8c7e 5fbd ae57 963c 1c2d 5039
00000160: a806 babd 8227 343d 569d 8fbd ba36 49bc
00000170: d823 1ebd d0d8 b73d 6c6a 49bd 6f4f b03d
00000180: 3073 a6bc b6bd 4a3d e992 11bd 4f9d a33d
00000190: 8e9e 99bd a447 7fbc 52fe 0fbd 9a7c d9bc
000001a0: bc97 953d 45f2 33bd 5f03 2fbd bf4a dcbc
000001b0: d8b1 83bd c970 f5ba ca3f 74bd 0b0d 69bd
000001c0: a2bf 853d 1a53 98bd 182e ddbc 9821 95bd
000001d0: 148f 4f3c 2ee3 253d 3dcf ba3d 8d0c a93d
000001e0: 4782 493d 9822 903d ac8e 4cbd 0454 e4bc
000001f0: 9f11 e8bd ace8 1e3b 6af9 913d c0c9 123d
00000200: 5671 2abc ed36 633d 2fb0 d6bc 3218 813d
00000210: c094 8e3b 26c6 3e3d 1a99 103e 94b5 97bc
00000220: ecd3 9fbd 382d 1dbd 3626 9abd 401a 223d
00000230: b826 edbc f0e2 67bd 8393 ff3c a8bc 4dbd
00000240: f4a9 563c e0ce 66bd efaa f03b 558e 083e
00000250: 9c89 c23d 86bf 66bc 1c8d 423c 97c2 26bd
00000260: 3cb3 b53a 24fa c0bd 75cd ae3d b719 96bd
00000270: 72b3 003d ce7d 74bd 8aa9 483d ac8d b4bd
00000280: 86a5 acbd 182c e8bc 40f2 63bc c24a 983d
00000290: 790b adbc e070 bfbc e69b 8c3d e8a9 80bd
000002a0: 1014 00bd e697 9cbd 04f2 c13c bd6a d53a
000002b0: 683d 8a3d d656 d93c 4271 293d 501d 87bd
000002c0: e05b 9d3d cee9 0e3d 9277 303d 77de b33c
000002d0: c843 b33b 940c f23c 88c6 61bd 6ea9 1dbd
000002e0: f4ce 833d d6cd 943c b136 343d 9826 5f3d
000002f0: fdf9 dabc ee36 fa3c 465d 8e3d b654 99bc
00000300: 441b 0cbd 71a9 953d fdac 44bc a8f7 a03d
00000310: acca 78bd 78bd f5bc 4a45 93bd 82a6 963d
00000320: 0af0 88bd 3a95 6dbd 94b4 133d 42e5 893d
00000330: 969c 503d d640 503c ab71 46bd 6bec 7bbc
00000340: 4633 383d fe07 4dbd 3a78 91bd 0a8b 503d
00000350: 8823 e6bc e398 d8bc d4c5 a3bd eae0 473c
00000360: 5a05 30bd d097 4f3d 0ebf 263d 3a07 7f3c
00000370: 9b5a c03c 8243 9c3c 92e1 813b 9e93 943d
00000380: 8a34 04bd 29fb 293c 6e8c b6bd 9216 b4bc
00000390: 8e0e 77bd 969f 483d 06a7 9f3d 9940 f1bc
000003a0: dcd2 12bc dcfb a43d 2c60 18bc bd3a 7ebd
000003b0: d0e0 143d 3657 97bd a436 4abd d6d8 a63d
000003c0: 986c fcbc bb32 a03d d6ff 86bd 4cee 90bd
000003d0: 0055 3abd ea6a 98bd c71a 91be be30 873d
000003e0: 3a7b 973d 843f 4a3d bcbf 73bd b87f b2bb
000003f0: 536e 65bd 662d 763d 3088 96bd 6b76 e3bd

arr_1 f4 [64]
0.08049736 -0.08203632 0.024502963 0.003185674 -0.08900285 0.07004491 0.001074567 -0.017487256
-0.00032506348 -0.040386006 -0.06780465 -0.04002361 0.09198388 -0.041378967 0.0086967945 0.0073886737
-0.016523037 0.11483249 0.16397052 0.04436501 -0.07040025 0.08893841 0.09723302 0.0014830952
0.015932165 0.098541155 0.082079634 0.031961173 -0.024307597 -0.0628932 -0.04419384 0.079783425
-0.045186162 0.060616806 0.1069083 0.11584693 0.11543667 0.12723613 -0.043920897 -0.06051457
0.077010565 0.08222066 0.006026295 0.04020433 0.12114958 0.067723215 -0.05197878 -0.07947309
0.01879809 0.12503761 -0.026719138 0.119448975 -0.020417467 -0.023594668 0.036606282 0.10682881
-0.00037700223 -0.0070003634 -0.06732611 0.08456542 0.018391233 0.09478447 0.07530972 0.24490756
00000000: cddb a43d a802 a8bd 70ba c83c bec6 503b
00000010: 2047 b6bd b573 8f3d 7cd8 8c3a 6f41 8fbc
00000020: 486d aab9 cc6b 25bd 2add 8abd ccef 23bd
00000030: 0b62 bc3d fe7c 29bd 007d 0e3c b01c f23b
00000040: 525b 87bc 4c2d eb3d e3e7 273e 16b8 353d
00000050: 022e 90bd 5725 b63d 1b22 c73d 6b64 c23a
00000060: 2c84 823c f2cf c93d 5e19 a83d b8e9 023d
00000070: ba20 c7bc 26ce 80bd 9a04 35bd 7e65 a33d
00000080: 2015 39bd 5449 783d bdf2 da3d 2841 ed3d
00000090: 106a ec3d 304a 023e 66e6 33bd 20de 77bd
000000a0: b7b7 9d3d 4e63 a83d 3a78 c53b 4cad 243d
000000b0: 451d f83d 78b2 8a3d b4e7 54bd cac2 a2bd
000000c0: 74fe 993c dc09 003e 18e2 dabc aaa1 f43d
000000d0: 8842 a7bc 9b49 c1bc 78f0 153d 10c9 da3d
000000e0: 62a8 c5b9 4e63 e5bb 46e2 89bd a330 ad3d
000000f0: 36a9 963c 5c1e c23d fc3b 9a3d 0cc9 7a3e

arr_2 f4 [32, 64]
0.08713115 -0.039357558 -0.03259575 -0.102117084 -0.04255788 -0.07312526 0.051158916 -0.13971034
0.04147874 -0.07399034 -0.10492647 0.1004999 -0.08410217 -0.2432122 0.13113002 -0.007993124
0.07126243 0.10896191 -0.029308816 0.024089864 -0.08122696 0.058358185 -0.03034231 -0.07686132
-0.09250213 0.014298473 0.14130388 0.0063293036 -0.11590618 -0.025227692 0.07882327 -0.06079954
-0.042972278 -0.06779636 -0.0906222 -0.119285 -0.052802574 0.02466309 0.03237465 0.044746898
-0.049593247 0.027407404 0.051650383 0.020249713 -0.079497874 -0.100208476 -0.083722726 0.013309984
0.0711713 -0.022379726 0.09716755 0.10285553 0.10546153 -0.032391354 -0.07724181 0.041431837
0.075215906 0.027081179 0.027520582 -0.06674431 -0.12699541 0.04342436 -0.004752836 0.010675153
0.036045723 0.11700331 -0.07277806 0.062330864 0.09843356 0.05253461 0.026820254 -0.106941864
0.047988255 0.01075886 0.13317293 -0.017542604 0.08687633 -0.11749942 -0.018434493 -0.026438795
-0.012938747 0.038861215 0.028812796 -0.08091958 -0.11666112 0.013108734 -0.01831783 0.1035407
-0.07553512 0.015165862 -0.0004249065 0.0127250925 -0.10731691 -0.0561356 -0.0041271737 0.052039724
0.07615018 -0.051617377 -0.097818136 0.0038979345 0.06750622 -0.029113628 -0.08024948 0.05131196
0.079901606 -0.088868424 -0.060762472 0.10469696 0.036046173 -0.08613686 0.050068863 0.09627872
-0.082523465 -0.08133513 -0.11997781 0.04093101 -0.10074401 -0.11146414 -0.00043065666 0.16545415
-0.04809223 -0.013324831 0.14576802 0.005570162 0.017067766 0.076583035 -0.024311423 0.06421457
0.04761684 -0.10597578 -0.26890334 -0.13112852 0.05625252 0.039968558 0.025496518 -0.23988982
-0.58330667 -0.11639975 -0.11733969 0.03987682 0.11550845 -0.15463111 -0.10299733 -0.034847222
-0.05629099 -0.10381258 -0.21389729 -0.11104271 -0.11124356 0.02064459 -0.12225671 -0.1976782
-0.09214714 -0.077215835 -0.050418787 0.031717837 -0.11921938 0.06917705 0.06145689 -0.03549718
0.10728356 -0.0838846 0.08718077 0.0899272 -0.07123451 0.13263825 -0.094840065 0.004965028
0.05400896 -0.2816645 0.060682945 -0.049317826 0.11066088 -0.01943162 -0.069644086 0.09294741
0.0065678656 0.014625996 -0.023179203 -0.03862998 0.120113336 0.043711044 0.091624014 -0.09686439
0.049200773 -0.0814708 -0.075323746 0.023387449 -0.117140666 -0.21228103 -0.070220366 0.10649888
0.075863615 -0.07034318 -0.052139815 -0.05480041 -0.043615896 -0.058057524 0.09818542 -0.05944156
-0.036377538 0.01408642 0.056803796 -0.05370655 0.11572947 -0.24517497 0.036611028 -0.015801076
0.1073806 0.10889847 0.01176055 0.005484524 -0.07645507 -0.089383155 0.00429991 0.08293991
0.05411878 -0.08702631 -0.038511842 -0.10561302 -0.28095418 -0.10382503 0.024945747 0.0149930045
-0.021315888 -0.11891687 -0.094352335 -0.0040828064 -0.05670797 -0.058961324 -0.018687688 -0.0590871
-0.038052633 0.010673714 -0.09859389 0.06576789 0.08409999 0.04793293 0.11449949 0.015091939
-0.027318552 0.007523105 0.08599076 -0.0019097747 0.0357526 0.095175125 -0.07492598 -0.022474024
-0.07969712 0.007298566 -0.028682278 0.033603903 -0.087427765 0.0516012 -0.09394571 -0.053177856
00000000: d171 b23d 6435 21bd 1f83 05bd c322 d1bd
00000010: 2c51 2ebd b2c2 95bd 038c 513d 3a10 0fbe
00000020: 9ce5 293d 3f88 97bd b0e3 d6bd e4d2 cd3d
00000030: c23d acbd 9e0c 79be f346 063e 98f5 02bc
00000040: 09f2 913d 6c27 df3d 0b19 f0bc 1b58 c53c
00000050: 525a a6bd fe08 6f3d 7090 f8bc 7869 9dbd
00000060: c271 bdbd 2444 6a3c f7b1 103e 0c66 cf3b
00000070: 3860 edbd 4eaa cebc 186e a13d f008 79bd
00000080: b303 30bd d1d8 8abd 2298 b9bd b24b f4bd
00000090: 8347 58bd 400a ca3c 489b 043d 8648 373d
000000a0: 4a22 4bbd 7e85 e03c 5a8f 533d bae2 a53c
000000b0: c8cf a2bd 1a3a cdbd d276 abbd 1e12 5a3c
000000c0: 42c2 913d b055 b7bc c8ff c63d eca5 d23d
000000d0: 37fc d73d ccac 04bd f430 9ebd 6eb4 293d
000000e0: cc0a 9a3d 59d9 dd3c d872 e13c 3eb1 88bd
000000f0: 160b 02be bedd 313d aebd 9bbb d6e6 2e3c
00000100: aea4 133d 6e9f ef3d aa0c 95bd a64e 7f3d
00000110: 8997 c93d 882e 573d 26b6 db3c 5604 dbbd
00000120: 558f 443d ee45 303c 7c5e 083e 82b5 8fbc
00000130: 38ec b13d 89a3 f0bd ef03 97bc 2c96 d8bc
00000140: 0afd 53bc f02c 1f3d d008 ec3c 2ab9 a5bd
00000150: 06ec eebd 04c6 563c 460f 96bc 260d d43d
00000160: 28b2 9abd 3c7a 783c fcc5 deb9 e87c 503c
00000170: f8c8 dbbd 71ee 65bd 3e3d 87bb 9b27 553d
00000180: a0f4 9b3d be6c 53bd e054 c8bd 7d74 7f3b
00000190: b340 8a3d b47f eebc d759 a4bd 7d2c 523d
000001a0: 74a3 a33d a600 b6bd 12e2 78bd 5c6b d63d
000001b0: 27a5 133d 8668 b0bd 0215 4d3d c72d c53d
000001c0: 1002 a9bd 0893 a6bd edb6 f5bd 46a7 273d
000001d0: e052 cebd 5047 e4bd c2c9 e1b9 d06c 293e
000001e0: 5cfc 44bd 6450 5abc 3644 153e e885 b63b
000001f0: b3d1 8b3c 91d7 9c3d c028 c7bc ee82 833d
00000200: e009 433d d409 d9bd b3ad 89be 8e46 06be
00000210: 0b69 663d 12b6 233d 13de d03c ada5 75be
00000220: 9653 15bf fe62 eebd cb4f f0bd e055 233d
00000230: b28f ec3d 9e57 1ebe 44f0 d2bd f6bb 0ebd
00000240: 6291 66bd b19b d4bd e407 5bbe 5c6a e3bd
00000250: aad3 e3bd d81e a93c ba61 fabd 276c 4abe
00000260: a4b7 bcbd 5623 9ebd ee83 4ebd 90ea 013d
00000270: 4a29 f4bd b2ac 8d3d 38ba 7b3d 7e65 11bd
00000280: 7cb7 db3d b0cb abbd d58b b23d c02b b83d
00000290: 66e3 91bd 52d2 073e 823b c2bd acb1 a23b
000002a0: 8038 5d3d 5436 90be ae8e 783d 7d01 4abd
000002b0: 2ca2 e23d 102f 9fbc 8fa1 8ebd 365b be3d
000002c0: 4037 d73b e0a1 6f3c 50e2 bdbc 783a 1ebd
000002d0: fbfd f53d 5a0a 333d 5fa5 bb3d d660 c6bd
000002e0: c086 493d 2ada a6bd 5643 9abd 0997 bf3c
000002f0: 72e7 efbd 3360 59be b2cf 8fbd 161c da3d
00000300: 625e 9b3d 1610 90bd 8f90 55bd 6576 60bd
00000310: 95a6 32bd bacd 6dbd 7015 c93d fe78 73bd
00000320: 9d00 15bd baca 663c 19ab 683d 66fb 5bbd
00000330: 9303 ed3d 260f 7bbe 72f5 153d 4271 81bc
00000340: 5cea db3d 2906 df3d 52af 403c 86b7 b33b
00000350: 7a94 9cbd 840e b7bd 42e6 8c3b 66dc a93d
00000360: a7ab 5d3d da3a b2bd 98be 1dbd a44b d8bd
00000370: 3ad9 8fbe 38a2 d4bd 065b cc3c 38a5 753c
00000380: a89e aebc b08a f3bd cc3b c1bd 10c9 85bb
00000390: 9e46 68bd 6e81 71bd ec16 99bc 5105 72bd
000003a0: 14dd 1bbd cde0 2e3c 98eb c9bd 51b1 863d
000003b0: 9e3c ac3d 5255 443d b57e ea3d 2e44 773c
000003c0: 28cb dfbc 6184 f63b ec1b b03d 6851 faba
000003d0: 5171 123d 2deb c23d cb72 99bd 721b b8bc
000003e0: 3e38 a3bd cf28 ef3b 19f7 eabc 3fa4 093d
000003f0: 540d b3bd c85b 533d 9c66 c0bd 06d1 59bd

arr_3 f4 [32]
-0.026395325 0.018738449 -0.019357523 -0.083451316 0.22817656 0.095825076 -0.07943261 0.048595626
0.0516565 0.10385585 0.09038309 -0.11203328 -0.090294436 0.23387161 0.11663507 0.061922774
-0.093717754 -0.072493955 0.05004694 0.092705056 -0.13191071 0.07636747 -0.089898996 0.035275877
-0.04122023 0.12376581 -0.11483433 -0.025728831 0.23074354 -0.12301414 -0.12859991 0.07494768
00000000: 023b d8bc 6081 993c ab93 9ebc 86e8 aabd
00000010: 1ea7 693e f03f c43d 90ad a2bd 350c 473d
00000020: c495 533d 60b2 d43d c51a b93d b471 e5bd
00000030: 4aec b8bd 0a7c 6f3e 5ede ee3d bca2 7d3d
00000040: 18ef bfbd b677 94bd 05fe 4c3d 26dc bd3d
00000050: 9a13 07be 8c66 9c3d f71c b8bd 707d 103d
00000060: 8bd6 28bd ee78 fd3d 432e ebbd 45c5 d2bc
00000070: 0948 6c3e d6ee fbbd b2af 03be 2b7e 993d

arr_4 f4 [16, 32]
0.111896604 0.10708017 0.013485907 -0.04692758 -0.18056288 -0.031767383 0.050516833 -0.026443705
-0.15778011 0.24725688 0.07084607 -0.020568388 0.0479365 0.3477145 0.07580106 -0.2125875
0.025364863 0.012846962 -0.0067599816 -0.18939584 -0.24274465 -0.08799015 0.14029078 0.13661581
-0.06469286 -0.16738534 -0.11877443 0.07081149 0.45082754 -0.24131942 -0.047910027 -0.11626509
-0.1235293 0.18792523 -0.061386183 0.11960629 0.1642082 -0.121756464 -0.10511328 -0.12513655
-0.14497058 -0.13578095 0.17248553 0.047921635 0.086485915 0.02762761 -0.1302286 -0.066311434
-0.17153049 0.104787916 -0.18841124 0.20417112 0.01964587 0.032630086 0.04101846 0.12294248
0.06704791 0.091933265 0.08114828 0.11369635 0.063726105 -0.21740034 -0.0313889 -0.05587376
-0.18605351 -0.09290585 0.030009659 -0.064001955 0.035886306 0.097303085 0.10131641 1.1219375
0.035161376 -0.022664085 -0.04746457 -0.10996377 0.17057729 -0.033115257 0.46609518 -0.14895725
0.10860108 -0.11239533 -0.06512873 0.101081625 0.205375 -0.11434974 0.16315818 0.08121388
-0.121157415 0.043622002 -0.24080841 0.05784118 -0.15402749 -0.061443664 -0.047931008 -0.060834244
0.12413293 0.15030336 -0.37936682 0.02693498 -0.5732764 -0.4110592 0.17577213 -2.6399798
0.083511405 -0.04128158 0.09279087 -0.02133001 0.127447 0.2655068 -1.2113235 -0.04883106
-0.05930285 -0.040021002 -0.35966083 -0.18978414 -0.5251216 -0.18575874 -0.016029768 0.079066195
0.03180236 0.014975026 -0.10381843 -0.2770306 -0.100538656 -0.17378443 -0.21291777 0.07630605
-0.114271685 0.12560195 -0.10010814 -0.1620556 -0.07996945 -0.068035774 -0.12572211 -0.04937978
0.16445762 0.024910007 -0.16151494 -0.045788664 0.048395872 -0.17091931 0.120170325 -0.13102067
-0.07209246 0.04869061 -0.14116293 0.0020521358 0.007960114 -0.055983424 -0.13633247 0.084631205
-0.073065184 0.11214473 -0.062337775 -0.07472928 -0.13316546 0.060685672 0.07858771 -0.049582653
-0.35198164 0.13914049 -0.03551036 0.088905506 -0.056763828 -0.056255337 0.06845258 0.0069549126
-0.13031091 0.14064455 0.0776674 0.017285906 0.004329955 -0.07788764 -0.13770908 -0.19060889
-0.1769807 -0.16441007 0.11562951 -0.17955002 -0.014399215 -0.09971395 0.12477113 0.007828385
0.02944861 -0.078590184 -0.08461456 -0.117403984 0.04432205 -0.10266057 0.14233017 -0.03393171
-0.20027363 -0.08272262 -0.06120333 -0.012099545 0.008210723 -0.06587427 0.019871376 -0.082737595
-0.023696795 -0.068344235 0.09363745 -0.05395719 0.13211784 0.20168348 -0.0542818 -0.1447403
-0.071692325 0.13845259 -0.029654577 0.035630144 0.006921785 -0.09310061 -0.16365102 -0.1191799
0.16759011 -0.042054404 -0.1823071 0.10456652 0.10678121 -0.0053726286 -0.1548312 -0.053960927
0.052580345 -0.019470673 -0.38020647 0.09091346 -0.3491249 -0.50400025 -0.11367108 -2.4141254
-0.15127587 -0.07451426 0.009136592 -0.14123139 -0.11125297 -0.17444046 -1.2886701 -0.15636757
-0.19284308 -0.031082153 -0.025758538 0.043388166 -0.55824286 -0.043055005 -0.22115088 0.08117014
-0.13020521 -0.12943998 -0.1872249 -0.56612736 0.037678476 -0.092938416 -0.18764624 -0.12520315
00000000: 0c2a e53d d94c db3d fef3 5c3c 2237 40bd
00000010: 7ae5 38be 841e 02bd bdea 4e3d 78a0 d8bc
00000020: 1c91 21be e830 7d3e bf17 913d 097f a8bc
00000030: 1059 443d a307 b23e 963d 9b3d 8ab0 59be
00000040: f9c9 cf3c 107c 523c d682 ddbb fcf0 41be
00000050: 0e92 78be 2e34 b4bd 63a8 0f3e 04e5 0b3e
00000060: b17d 84bd 1067 2bbe 0240 f3bd 9d05 913d
00000070: ded2 e63e 701c 77be 4e3d 44bd 641c eebd
00000080: eefc fcbd 796f 403e 1470 7bbd 24f4 f43d
00000090: 3226 283e 745b f9bd a245 d7bd cc23 00be
000000a0: 2b73 14be 290a 0bbe 0ca0 303e 7a49 443d
000000b0: 871f b13d 4c53 e23c a55a 05be 4ace 87bd
000000c0: b0a5 2fbe 0c9b d63d e0ee 40be 3c12 513e
000000d0: 60f0 a03c 20a7 053d f902 283d 44c9 fb3d
000000e0: 6a50 893d 8247 bc3d 1231 a63d a2d9 e83d
000000f0: d582 823d 329e 5ebe a691 00bd e2db 64bd
00000100: d084 3ebe 6c45 bebd d1d6 f53c 7513 83bd
00000110: 85fd 123d d746 c73d fa7e cf3d a69b 8f3f
00000120: 6005 103d 08aa b9bc 356a 42bd af34 e1bd
00000130: d0ab 2e3e dda3 07bd 07a4 ee3e 4088 18be
00000140: 3e6a de3d 862f e6bd 3662 85bd e203 cf3d
00000150: d34d 523e 3230 eabd f012 273e 7653 a63d
00000160: 6121 f8bd fcac 323d 7b96 76be e0ea 6c3d
00000170: 62b9 1dbe 5aac 7bbd 4e53 44bd 542d 79bd
00000180: 6839 fe3d 20e9 193e 5e3c c2be bfa6 dc3c
00000190: 3ec2 12bf 5a76 d2be 9cfd 333e 6ef5 28c0
000001a0: 0708 ab3d e016 29bd 2409 be3d 46bc aebc
000001b0: 7781 023e 82f0 873e a60c 9bbf 1403 48bd
000001c0: 8ce7 72bd 10ed 23bd 7725 b8be c656 42be
000001d0: 5f6e 06bf 8a37 3ebe dc50 83bc 75ed a13d
000001e0: 3143 023d d059 753c c29e d4bd f4d6 8dbe
000001f0: 36e7 cdbd 8cf4 31be 1e07 5abe 5946 9c3d
00000200: 4607 eabd cc9d 003e 7f05 cdbd e7f1 25be
00000210: 06c7 a3bd 5756 8bbd 4cbd 00be 7442 4abd
00000220: 9467 283e 1210 cc3c 2c64 25be e58c 3bbd
00000230: c03a 463d 7905 2fbe dc1b f63d 482a 06be
00000240: 36a5 93bd ce6f 473d 048d 10be 207d 063b
00000250: 236b 023c e04e 65bd bd9a 0bbe 2053 ad3d
00000260: 33a3 95bd 23ac e53d e555 7fbd aa0b 99bd
00000270: 875c 08be 8a91 783d 98f2 a03d 2e17 4bbd
00000280: f036 b4be d87a 0e3e 5073 11bd 1714 b63d
00000290: 3081 68bd ff6b 66bd de30 8c3d 09e6 e33b
000002a0: 3970 05be 2005 103e 1610 9f3d 2c9b 8d3c
000002b0: 4ce2 8d3b 8e83 9fbd 9c03 0dbe fa2e 43be
000002c0: 6e3a 35be 1d5b 28be 2acf ec3d f6db 37be
000002d0: afea 6bbc d436 ccbd 0288 ff3d a042 003c
000002e0: 363e f13c e4f3 a0bd 664a adbd 8071 f0bd
000002f0: 0a8b 353d b43f d2bd 00bf 113e fafb 0abd
00000300: 8814 4dbe 7a6a a9bd 58b0 7abd 2c3d 46bc
00000310: 4586 063c 17e9 86bd 4cc9 a23c 5472 a9bd
00000320: c81f c2bc 10f8 8bbd fec4 bf3d 3702 5dbd
00000330: e649 073e 1d86 4e3e 9856 5ebd cd36 14be
00000340: 6dd3 92bd 84c6 0d3e 28ee f2bc eaf0 113d
00000350: 24d0 e23b 88ab bebd 2294 27be 9714 f4bd
00000360: be9c 2b3e 3d41 2cbd b6ae 3abe f926 d63d
00000370: 1bb0 da3d e00c b0bb 128c 1ebe 2206 5dbd
00000380: 7d5e 573d f680 9fbc 6caa c2be d630 ba3d
00000390: 80c0 b2be 2906 01bf 62cc e8bd 0881 1ac0
000003a0: 10e8 1abe ef9a 98bd a5b1 153c f69e 10be
000003b0: 99d8 e3bd 85a0 32be 24f3 a4bf d21e 20be
000003c0: a878 45be 00a0 febc 9203 d3bc cab7 313d
000003d0: 01e9 0ebf 725a 30bd 6075 62be 883c a63d
000003e0: 8454 05be ea8b 04be e2b7 3fbe b9ed 10bf
000003f0: bf54 1a3d 7f56 bebd 5626 40be 4135 00be

arr_5 f4 [16]
0.15760405 -0.17011905 0.012386123 -0.19492729 -0.15197976 -0.16648479 0.05043087 -0.149454
-0.05238805 0.13824376 0.02500077 0.008667844 -0.014016209 -0.10526119 0.83119106 0.045028992
00000000: f562 213e b033 2ebe 2aef 4a3c 059b 47be
00000010: 95a0 1bbe fd7a 2abe 9a90 4e3d 780a 19be
00000020: da94 56bd c68f 0d3e 6ace cc3c 9303 0e3c
00000030: 3ea4 65bc 2e93 d7bd f0c8 543f 5270 383d

arr_6 f4 [5, 16]
0.5967939 -0.06283645 0.03825383 -0.3911917 -0.0909231 -0.14797923 0.124072075 0.2119435
-0.21960075 0.73912996 -0.18870354 -0.13724516 0.2507422 -0.07547265 -0.4533267 0.44361436
-0.05594782 -0.053198487 -0.038116947 -3.8031225 0.10684867 -0.46098584 -0.4224062 -1.9610628
-0.07865721 -0.22954181 -2.4056993 0.34987295 -0.8478141 -1.5895226 0.74692893 -0.31710905
0.2181477 0.25646633 -0.0042706025 4.3208065 -0.022592707 0.42266142 0.6712377 1.6781571
0.09791985 -0.46768984 2.8018916 0.29422843 0.77223426 1.3597116 0.1257875 0.028878178
-0.2649674 -0.0870094 -0.14521292 -0.13808805 0.021215409 -0.060731728 0.19772823 -0.00852156
0.055959865 -0.36102498 0.1502913 0.1935113 -0.10948214 -0.21282336 0.20043175 -0.26332963
-0.41365373 -0.06154546 0.044520617 -0.06274133 -0.118840836 -0.029632019 -0.16176972 0.029649338
-0.03419162 -0.21381724 -0.09739644 -0.116662145 -0.43598062 -0.15685752 -0.051218122 -0.14642718
00000000: 7cc7 183f 66b0 80bd 0cb0 1c3d 474a c8be
00000010: e435 babd de87 17be 8019 fe3d b807 593e
00000020: 05df 60be 9f37 3d3f 803b 41be ff89 0cbe
00000030: 4861 803e 6891 9abd 701a e8be 6c21 e33e
00000040: 8b29 65bd a8e6 59bd 8420 1cbd 5c66 73c0
00000050: 7ad3 da3d 5606 ecbe a045 d8be 1b04 fbbf
00000060: 0817 a1bd 020d 6bbe faf6 19c0 8c22 b33e
00000070: 580a 59bf 7a75 cbbf bc36 3f3f 1e5c a2be
00000080: 1c62 5f3e 8e4f 833e 69f0 8bbb 0c44 8a40
00000090: 5714 b9bc 1467 d83e 3cd6 2b3f dacd d63f
000000a0: 348a c83d 0b75 efbe 3152 3340 1ca5 963e
000000b0: 25b1 453f 080b ae3f 70ce 003e ee91 ec3c
000000c0: cfa9 87be fc31 b2bd b2b2 14be f466 0dbe
000000d0: f0cb ad3c d5c1 78bd 4579 4a3e 039e 0bbc
000000e0: 2c36 653d 44d8 b8be f6e5 193e d427 463e
000000f0: 2c38 e0bd 5eee 59be fb3d 4d3e 24d3 86be
00000100: 6cca d3be 1817 7cbd 405b 363d 877e 80bd
00000110: d362 f3bd d9be f2bc f6a6 25be 2be3 f23c
00000120: 830c 0cbd e8f2 5abe c977 c7bd 90ec eebd
00000130: da38 dfbe 429f 20be 18ca 51bd 02f1 15be

arr_7 f4 [5]
0.010665849 2.37817 -0.85050976 -0.64552295 -1.209739
00000000: d0bf 2e3c f033 1840 02bb 59bf fe40 25bf
00000010: bad8 9abf
